…
   "source": [
    "dot_img_file = '/tmp/model_1.png'\n",
    "tf.keras.utils.plot_model(model, to_file=dot_img_file, show_shapes=True)"
   ]
  },
  {
   "cell_type": "code",
   "execution_count": 45,
   "metadata": {},
   "outputs": [
    {
     "name": "stdout",
     "output_type": "stream",
     "text": [
      "Model: \"sequential_5\"\n",
      "_________________________________________________________________\n",
      "Layer (type)                 Output Shape              Param #   \n",
      "=================================================================\n",
      "conv2d_24 (Conv2D)           (None, 128, 128, 16)      448       \n",
      "_________________________________________________________________\n",
      "batch_normalization_55 (Batc (None, 128, 128, 16)      64        \n",
      "_________________________________________________________________\n",
      "max_pooling2d_24 (MaxPooling (None, 64, 64, 16)        0         \n",
      "_________________________________________________________________\n",
      "batch_normalization_56 (Batc (None, 64, 64, 16)        64        \n",
      "_________________________________________________________________\n",
      "conv2d_25 (Conv2D)           (None, 32, 32, 32)        4640      \n",
      "_________________________________________________________________\n",
      "batch_normalization_57 (Batc (None, 32, 32, 32)        128       \n",
      "_________________________________________________________________\n",
      "max_pooling2d_25 (MaxPooling (None, 16, 16, 32)        0         \n",
      "_________________________________________________________________\n",
      "batch_normalization_58 (Batc (None, 16, 16, 32)        128       \n",
      "_________________________________________________________________\n",
      "conv2d_26 (Conv2D)           (None, 16, 16, 64)        18496     \n",
      "_________________________________________________________________\n",
      "batch_normalization_59 (Batc (None, 16, 16, 64)        256       \n",
      "_________________________________________________________________\n",
      "max_pooling2d_26 (MaxPooling (None, 8, 8, 64)          0         \n",
      "_________________________________________________________________\n",
      "batch_normalization_60 (Batc (None, 8, 8, 64)          256       \n",
      "_________________________________________________________________\n",
      "conv2d_27 (Conv2D)           (None, 8, 8, 128)         73856     \n",
      "_________________________________________________________________\n",
      "batch_normalization_61 (Batc (None, 8, 8, 128)         512       \n",
      "_________________________________________________________________\n",
      "max_pooling2d_27 (MaxPooling (None, 4, 4, 128)         0         \n",
      "_________________________________________________________________\n",
      "batch_normalization_62 (Batc (None, 4, 4, 128)         512       \n",
      "_________________________________________________________________\n",
      "dropout_21 (Dropout)         (None, 4, 4, 128)         0         \n",
      "_________________________________________________________________\n",
      "flatten_5 (Flatten)          (None, 2048)              0         \n",
      "_________________________________________________________________\n",
      "dense_11 (Dense)             (None, 128)               262272    \n",
      "_________________________________________________________________\n",
      "batch_normalization_63 (Batc (None, 128)               512       \n",
      "_________________________________________________________________\n",
      "dropout_22 (Dropout)         (None, 128)               0         \n",
      "_________________________________________________________________\n",
      "dense_12 (Dense)             (None, 29)                3741      \n",
      "=================================================================\n",
      "Total params: 365,885\n",
      "Trainable params: 364,669\n",
      "Non-trainable params: 1,216\n",
      "_________________________________________________________________\n"
     ]
    }
   ],
   "source": [
    "model.summary()\n"
   ]
  },
  {
   "cell_type": "code",
   "execution_count": 43,
   "metadata": {},
…
